statisticModel.pt (torch, 150058 bytes, 14 tensors)

fc1.weight f4 [64, 8]
000000 a5 df 0d bf 2b e8 26 be 80 81 b1 3e 56 29 33 3e
       -0.5541938 -0.16299503 0.34669113 0.17496237
000010 08 c8 4b bf 3e 26 b8 3e 74 96 29 bf ed 43 02 40
       -0.796021 0.35966676 -0.662452 2.0353959
000020 13 36 b4 3d d9 9c cd 3d 4f 4a 86 3d e8 ca 2f bd
       0.08799376 0.10039682 0.06557142 -0.042918116
000030 fb 2d 76 3f 33 90 3e be f8 46 cb bd 6e eb 5a 40
       0.9616391 -0.18609695 -0.099256456 3.4206195
000040 16 5c 34 3f 48 ff 69 3e 7e 45 c7 3e 01 a9 56 be
       0.7045301 0.22851288 0.38920206 -0.20962907
000050 c1 ad 48 bf 3b 9d df 3d 62 bc 93 3e 2c b8 3c c0
       -0.7839013 0.10918661 0.28854662 -2.948741
000060 34 5c a5 bd 7f 22 f8 be ff 64 de bc 36 dd 82 3f
       -0.08074227 -0.48463818 -0.027147768 1.0223758
000070 25 2d 13 be 09 90 5a be 18 f9 80 3f a0 29 5e 3f
       -0.1437269 -0.21344008 1.0076017 0.86782265
000080 46 2c a2 be 0e df 46 be 22 27 21 3c ee 45 6c 3f
       -0.31674403 -0.19421026 0.00983599 0.92294204
000090 c1 d7 af 3f 3f e6 f9 bd f4 24 46 3f 43 df 2f 40
       1.3737718 -0.12202119 0.77400136 2.7480018
0000a0 9b ba 35 3e 56 8d 86 3e f0 84 3d 3f aa ac 1c bd
       0.17746966 0.26279706 0.7403097 -0.038250603
0000b0 e5 ab 16 3f e7 19 93 3e 76 68 43 3f 98 8d 05 bf
       0.5885604 0.287307 0.7633127 -0.5216918
0000c0 34 23 45 be b1 b6 03 3f 11 68 21 bf 8e 26 e2 be
       -0.1925171 0.5145064 -0.6304942 -0.4417004
0000d0 47 e2 ba 3f 85 17 b5 be 4f 2e 6e 3f ce 7a c3 3e
       1.4600304 -0.35369506 0.9303941 0.3817963
0000e0 ee 32 71 3d be 53 52 3e 6f 5e ea 3e 93 12 88 3d
       0.05888646 0.20539758 0.45775172 0.06644168
0000f0 57 c7 ee 3e ec c9 6a bd 6c 43 a5 3c 10 ab 82 40
       0.4663646 -0.057321474 0.02017375 4.0833817
000100 6a df 60 be 00 ff 1d bf da 36 37 bd 60 b8 1b 3f
       -0.21960226 -0.61717224 -0.044730045 0.6082821
000110 c1 84 a8 3f 83 a6 36 bd 98 dd 09 3f 3b 4a 69 40
       1.3165513 -0.04459239 0.5385375 3.6451557
000120 d8 eb fa bd 86 0e 1d bd 7d a9 aa bd 4f 21 2b 3d
       -0.12252015 -0.03834393 -0.083331086 0.041779812
000130 b9 7a a2 bf 1f 8c 0b bd ca 7e d6 bd 8a 82 58 c0
       -1.2693702 -0.034069177 -0.10473402 -3.3829675
000140 fe c0 10 bc 77 ae 8d 3e 1c e5 c5 3e 29 b7 ae 3f
       -0.008835075 0.2767217 0.3865136 1.3649646
000150 42 0c bb 3f cc 02 c7 b8 a3 0e 2a 3f 41 07 5d 40
       1.4613116 -9.4895804e-05 0.66428584 3.4535677
000160 b1 c3 db bd 01 ae 0b 3c ed f8 15 bd 6a ff 0a 3f
       -0.107306845 0.0085253725 -0.036614347 0.5429598
000170 81 13 69 3f 97 ac 14 be 1f 8f f1 3e 11 01 51 40
       0.91045386 -0.14518963 0.47179505 3.26569
000180 5e 6d 2c 3f c7 00 8d be 69 74 dc 3f 07 c3 c4 3d
       0.6735438 -0.27539656 1.7223026 0.09607511
000190 e0 d9 c7 bf 9d 5c 85 3e 4f bc 5e bf 5b 29 88 3f
       -1.5613365 0.2604722 -0.87006086 1.0637621
0001a0 9a b4 43 be 99 7f a7 be 42 ff 8f be 8c 3f fa bd
       -0.19111863 -0.32714537 -0.28124434 -0.12219152
0001b0 0f 3a dd bd 41 aa cd bc c1 02 4f 3e 48 48 9d 3e
       -0.108020894 -0.025105597 0.20215894 0.3071921
0001c0 0b 95 b1 be 3c 08 52 be c8 9d 9b 3e 8d 75 71 bd
       -0.34684023 -0.20510954 0.30393815 -0.058949996
0001d0 23 3c cc bd eb fb b1 be 12 a0 6c bd af de a0 be
       -0.09972408 -0.3476251 -0.057769842 -0.31419894
0001e0 0a 1f f9 3e 78 a5 f4 3d d5 c2 51 3e 75 18 22 3e
       0.48656493 0.11945623 0.20484479 0.15829642
0001f0 6c 57 9a 3e f4 54 d7 3e d4 10 08 3e b1 61 d8 3f
       0.30144823 0.42057002 0.1328767 1.6904813
000200 be de 9a 3e 1d a3 a6 bd 36 54 fb 3d 1c 33 8c be
       0.30248064 -0.0813658 0.12271921 -0.27382743
000210 ff 8f 6c be 50 4a 06 bd 97 55 f9 bd d6 5c 4b 3c
       -0.23101805 -0.032785714 -0.12174528 0.0124122705
000220 04 56 93 3d 3d 41 2a 3e 6c 18 05 3f 91 49 3d 3e
       0.071941406 0.16626449 0.5199039 0.18485095
000230 5b 0a 59 3f 31 65 d6 3e f4 8b ef 3e 45 c9 06 40
       0.84781426 0.41874078 0.46786463 2.1060345
000240 2b 65 ab 3f bc ed b2 3f b5 b8 97 3e 5f a3 87 3f
       1.3390249 1.3978801 0.29633108 1.0596732
000250 8d c4 c6 3f 3f 30 32 3e ea 45 d7 3e b6 30 c3 be
       1.5528733 0.17401217 0.42045528 -0.381231
000260 e1 cc 77 be c8 57 87 3e 31 3a 11 3f f3 13 d1 be
       -0.24199249 0.2643416 0.5672942 -0.40835533
000270 3f 04 04 3f 25 f2 fe 3d 24 c7 5d 3f d7 04 c4 3f
       0.5156898 0.12448529 0.8663199 1.5313977
000280 c6 bd 3a be d9 81 bf 3e 7f c5 23 3e c8 df 96 bf
       -0.18236455 0.37403753 0.15993308 -1.1787043
000290 85 7a 3e 3f 3c d3 23 3e cc 93 10 3f 69 37 71 40
       0.744057 0.15998548 0.5647552 3.769007
0002a0 0d bb db bd 50 a7 ae 3e 72 37 71 be 12 ad de bd
       -0.107290365 0.34112024 -0.23556307 -0.10872854
0002b0 ad 6d bc bd bf 72 10 3e 19 67 1b be dd cd 8f be
       -0.092006065 0.14106272 -0.15176047 -0.2808675
0002c0 4b 5f 1b 3f 53 1f 3a 3f 18 26 81 3e e2 0a df bd
       0.6069228 0.72704047 0.25224376 -0.108907476
0002d0 25 a0 ee be 1d de bb bc b5 25 1f bf 4b 2d 90 be
       -0.46606556 -0.02293306 -0.6216691 -0.28159556
0002e0 1c a3 26 3f 3f 1c 2b 3f 02 ae 1b 3f a3 52 00 bf
       0.65092635 0.66839975 0.6081239 -0.50126094
0002f0 55 b6 d6 be a0 0b 8b 3e d6 1b 0e 3e 21 bf 5f 3f
       -0.41935983 0.27157307 0.13877806 0.87401015
000300 0a f9 0d 3f a0 e9 4b 3e f3 6a 27 3f f7 18 8b 3e
       0.5545813 0.1991334 0.65397567 0.27167484
000310 e4 d8 09 bf 05 21 37 be 7f e4 a5 3e 3a 4b 39 c0
       -0.53846574 -0.1788369 0.3240089 -2.8952165
000320 e4 06 fd bd 98 d7 ec be fb cc 1a be 9b 32 d1 3e
       -0.1235483 -0.46258235 -0.15117256 0.4085892
000330 7f 18 a5 be 94 63 40 3e 7b bb 22 bd 3b b7 3d c0
       -0.32245252 0.18787986 -0.039729577 -2.9643085
000340 f3 b5 74 3e 9d 3d 4c 3f fa ab 9b 3e a1 74 5e bf
       0.23897533 0.79781514 0.30404645 -0.8689671
000350 f1 a0 7e bf 1b a4 0a 3e 45 51 57 bf 98 0a ae bf
       -0.9946433 0.13539164 -0.8410838 -1.3596983
000360 b2 80 9b be 09 9b 7c 3b aa 24 6d 3e 51 08 91 be
       -0.30371624 0.0038544557 0.23158517 -0.28326657
000370 5c c1 a2 3d 12 50 69 be 9d d2 32 3e c4 6b 53 bd
       0.079470366 -0.2278445 0.17463155 -0.051616445
000380 1a 0e f3 3e 95 d2 c0 3c 5d e6 ed be 32 19 44 3e
       0.47471696 0.023537913 -0.46464816 0.19150236
000390 16 6e 93 bf 8c c3 02 bf 96 b4 42 bf f1 1b 41 c0
       -1.151797 -0.5107963 -0.760568 -3.0173304
0003a0 68 a1 8c be 36 d8 e5 3c 18 74 0e be 5b 93 b7 bd
       -0.27466893 0.028057199 -0.13911474 -0.08963653
0003b0 15 ee 98 be 6d d6 e4 3d 92 74 91 3e 9a 61 1c 3e
       -0.29869142 0.11173711 0.2840925 0.15271607
0003c0 0c f3 71 3d 15 31 f8 be 3b d0 bf bf ea d9 9a 3e
       0.05906968 -0.48474947 -1.4985422 0.3024438
0003d0 6f 50 08 3f 7d 90 cc bf 90 cf d2 be 70 c0 bc 3e
       0.5324773 -1.5981594 -0.41173983 0.36865568
0003e0 3e c1 b3 bd 99 3c 04 3e f5 1d 8c 3c e0 30 6e be
       -0.087770924 0.12913741 0.017104128 -0.23260832
0003f0 5a 16 c9 bd 70 8b b3 bd 30 a2 a3 be e0 82 43 3e
       -0.09818716 -0.0876683 -0.31959677 0.19092894

fc1.bias f4 [64]
000000 47 98 fd bd a6 45 93 3c 73 c3 e5 3d 80 64 20 bd
       -0.1238256 0.017977547 0.112189196 -0.039158344
000010 05 bf c5 3c eb 91 3e be 67 f6 60 3d bc 3e 54 3c
       0.024138937 -0.18610351 0.054922488 0.01295441
000020 80 cd 5e 3c e3 1e 6d 3d fd 0e 13 39 ea 45 0b 3d
       0.0135988 0.057890784 0.00014024596 0.034002222
000030 a4 b2 93 ba be d9 e0 bd 08 01 8e be f0 db 3c be
       -0.0011268449 -0.10979031 -0.27735162 -0.18443274
000040 77 5c 8a be b6 bb 3b be 30 6d 49 39 bd 91 be bc
       -0.2702367 -0.18333325 0.0001920953 -0.023262853
000050 04 96 36 bc 78 25 dc bd 98 0c 5b bd 8a e8 02 be
       -0.011144165 -0.10749334 -0.053478807 -0.12784019
000060 a4 71 b2 3d c8 89 8b 3c a9 e7 59 bd eb 0d 92 be
       0.087130815 0.017033473 -0.053199444 -0.28526244
000070 e2 73 84 3d 41 30 87 be a2 51 4a 3d 3f b4 81 bc
       0.064674154 -0.26404002 0.049394257 -0.015833018
000080 49 66 b7 bb e6 65 43 be f8 ba b3 be c2 fd 69 be
       -0.00559691 -0.1908184 -0.35103583 -0.22850707
000090 26 58 29 3d f2 c1 9e 3d a7 12 d8 3d bc 86 4f be
       0.04134383 0.07751836 0.10550433 -0.20266241
0000a0 6a b0 7b 3c 44 e1 9f bb 0b 71 80 be 5d 07 09 be
       0.015361885 -0.0048791487 -0.25086245 -0.13381715
0000b0 6c e5 5b be d0 d4 95 3d 11 c3 c4 bc da b8 da 3d
       -0.21474236 0.073159814 -0.024018796 0.10679789
0000c0 db f7 99 be ba e7 f7 3c f0 01 d0 3d 85 3d 6c bb
       -0.3007191 0.030261863 0.101566195 -0.003604741
0000d0 11 30 b1 be 76 ef a5 bd cc b1 0a be ea 7f 0a be
       -0.34606984 -0.08102314 -0.13544387 -0.13525358
0000e0 d9 c3 30 3d 18 93 58 be 13 d7 10 bc f4 95 08 bd
       0.043155525 -0.21149862 -0.00884034 -0.03334613
0000f0 02 aa ef bb 1e 59 56 be 48 e7 2f 3e fe 69 20 3d
       -0.0073139677 -0.20932433 0.1717807 0.039163582

fc2.weight f4 [128, 64]
000000 2a c6 fc bd 5a 01 05 3d fb 00 e4 3d 22 a2 f3 bd
       -0.12342484 0.032471992 0.111329995 -0.11896159
000010 5a 01 9a 3d 10 62 e9 3d 48 fe dc bd 2b 89 ab 3c
       0.07519789 0.11395657 -0.10790688 0.02093943
000020 f2 37 cb bd 34 c7 c8 bd 10 8c a8 3c e2 18 af 3d
       -0.0992278 -0.0980362 0.0205746 0.08549668
000030 9e bf 11 3d 8e 21 ee bd 38 db 95 3c 56 75 da bd
       0.03558313 -0.11627494 0.018293008 -0.10666911
000040 a0 c6 9f bb ae 60 c2 bd 2f 98 15 bd 52 f5 b2 3b
       -0.004875973 -0.094910964 -0.036522087 0.0054613734
000050 6c 49 76 3d 98 71 ab bc 69 c7 ff 3c 64 c9 c8 bd
       0.060128614 -0.02092819 0.031223016 -0.09804037
000060 22 5d 1e bd 29 1b c1 bd 59 46 e2 bb e8 23 99 3c
       -0.038663037 -0.094290085 -0.0069053588 0.01869388
000070 92 54 24 3d ea 80 d1 3d 20 39 c3 3d c6 f2 cb bd
       0.040119715 0.102296665 0.0953238 -0.09958415
000080 55 67 37 bc 90 f7 c1 bc ac 5d 40 3d 40 a8 fb bd
       -0.01119407 -0.023677617 0.046964332 -0.122879505
000090 e6 90 d6 3d a5 2f 29 3c d8 38 52 bd 50 2c cf bc
       0.10476856 0.010326301 -0.05132374 -0.025289685
0000a0 bf 26 dc bc e4 35 e4 bd 78 da 89 3d 21 01 b7 bd
       -0.026873944 -0.11143091 0.06731123 -0.08935762
0000b0 24 48 7f 3d 52 93 5d 3d a9 47 ed bd 54 fd 06 3d
       0.062324658 0.054095574 -0.11585934 0.032956436
0000c0 80 f0 6d bd a2 81 c4 3d 48 8e f3 3d db 7e 4f bd
       -0.058090687 0.09595038 0.11892372 -0.05065809
0000d0 e0 6f 6d 3c 16 d2 b7 bd 08 10 b7 bc c0 6d 9a bc
       0.014492005 -0.089756176 -0.022346511 -0.018851161
0000e0 f8 15 70 3d 48 13 d1 bd 4e de ae bd 9b 18 43 3d
       0.0586147 -0.10208756 -0.08538495 0.047630887
0000f0 49 4e a7 bd 62 85 b3 3d 36 e3 32 3b 5c 41 77 3d
       -0.081692286 0.08765675 0.0027296073 0.060365066
000100 d1 ec b4 3e 27 c5 27 3e 9a d8 e2 bd ad f4 a7 3e
       0.35336927 0.16383801 -0.1107647 0.3280386
000110 24 0a 5c 3d 24 42 8c 3f 28 bc 7e 3e d9 2c 46 3e
       0.05372061 1.0957685 0.24876463 0.19353046
000120 9a 88 3a 3e ea ea 1a be 5f 56 27 3d d9 45 0b 3e
       0.18216172 -0.15128675 0.040853854 0.13600864
000130 f0 4b 54 bd d0 8f f6 3d 78 1d 83 bc f2 ad e6 3e
       -0.051830232 0.12039149 -0.016005263 0.45054585
000140 63 83 da 3b 2d 46 4a 3f 4e 11 24 be 8d 49 cd bc
       0.0066684945 0.7901333 -0.16022226 -0.025059486
000150 77 42 56 3e c0 23 1f bc fc de 5d 3e f5 6d 12 3f
       0.20923792 -0.009713113 0.21667093 0.5719903
000160 f5 49 aa bd b4 21 d2 3c c6 f6 0b 3f 8a d8 cf bd
       -0.083148874 0.025650837 0.5467342 -0.101487234
000170 ff 4c 32 bf 80 77 b5 ba c4 41 58 bf 36 93 e7 3d
       -0.69648737 -0.0013844818 -0.8447535 0.11307375
000180 54 ee 97 3d a7 06 21 3f 48 45 e8 bc 47 40 95 3f
       0.07418504 0.62900776 -0.028353348 1.1660241
000190 89 5b 3a 3e c0 fe 2b 3e f9 45 b7 3d e8 d9 9f 3d
       0.1819898 0.16796398 0.08948893 0.07805234
0001a0 a9 c0 32 3d 62 a0 10 3d 68 b5 c3 bc b8 af 93 3e
       0.043640766 0.035309203 -0.023890212 0.28845
0001b0 bf 92 98 bd 3b f8 c0 bd 2a ce ca ba bc 24 bc 3d
       -0.074498646 -0.09422346 -0.0015472819 0.09186694
0001c0 5c 9c 6b bd be a0 f1 3a a1 06 fb 3e 71 97 85 bc
       -0.057522163 0.0018434746 0.49028495 -0.016307564
0001d0 80 e2 21 3b 59 54 4c bd a8 0f 92 bc 7c e1 20 3d
       0.0024701655 -0.049885128 -0.017829731 0.03927754
0001e0 25 2e 97 bf 18 a7 ea bc e7 08 d1 3d 53 9c 43 bf
       -1.1810957 -0.02864413 0.10206776 -0.76410407
0001f0 4b bd a0 bc 95 3e c2 3c 7c a6 d8 3d 97 2e 3f 3e
       -0.019621512 0.023711482 0.105786294 0.18670116
000200 54 64 61 bd 12 89 ac bd 56 96 aa bd f7 0a ed bd
       -0.05502732 -0.084245816 -0.083294556 -0.11574357
000210 53 09 09 be d9 68 af 3d 08 09 9e 3d 7f 51 0a be
       -0.13382463 0.0856492 0.07716566 -0.13507651
000220 e4 2f a8 bd 47 b7 3c bd d8 52 d5 bd b2 5b 27 bd
       -0.082122594 -0.046073224 -0.10416192 -0.04085893
000230 b4 cc 3c be 84 3a 08 3d c2 2f f4 3d 3b af 04 bc
       -0.18437463 0.03325893 0.119231716 -0.008098419
000240 36 3e b6 3d 86 ab d8 bc 01 6f 36 be 96 6e af bc
       0.088985845 -0.026448976 -0.17815782 -0.021415036
000250 68 dc bb bd d6 81 f8 3d 22 1e fa 3d df ba 5c bd
       -0.091728985 0.12134139 0.12212779 -0.05388915
000260 8c 6a 41 be fc af f5 bd 86 32 93 3d 30 0e 63 3c
       -0.188883 -0.11996457 0.07187371 0.013858363
000270 2d dd b3 3a 2c 96 fb 3d 21 88 fa bd 2a c5 b1 bd
       0.0013722532 0.122845024 -0.12232996 -0.08680184
000280 b9 1a d3 bb 7d 65 4d 3c 3e c2 e1 bd e0 5e 85 bd
       -0.0064423946 0.012536404 -0.11023377 -0.065122366
000290 82 5a 40 be ce 56 25 be ff a9 38 bd 90 ce d9 bd
       -0.18784526 -0.16146395 -0.045083996 -0.10635102
0002a0 2d 8f a6 bd 79 bb f5 bd 8a 6e e9 3d bc 09 55 3d
       -0.08132777 -0.11998648 0.11398037 0.052011237
0002b0 78 71 36 3d 83 65 2a bd 98 8e 11 be 04 30 8c 3c
       0.044541806 -0.041600715 -0.14214551 0.01711274
0002c0 1c f9 d0 3d 9b 51 0f bd a0 a7 34 be bd 70 13 3d
       0.10203764 -0.034989934 -0.17642069 0.035996187
0002d0 00 c5 df ba 84 44 5f 3d 88 10 a3 3d a0 ab 8f bd
       -0.001707226 0.0545087 0.079621375 -0.07015157
0002e0 6e 66 39 be b2 37 e4 bd d7 88 cf 3c b0 be b3 3c
       -0.1810548 -0.111434355 0.025333805 0.021941513
0002f0 20 94 54 bd 40 97 c1 3d 25 2f a1 3c 40 eb b9 bd
       -0.051899076 0.09452677 0.0196758 -0.090780735
000300 30 3f 4b bc ce 84 1a bd e4 b6 e2 3d 0c 6f 83 3d
       -0.012405202 -0.03772431 0.1107004 0.06417665
000310 a6 58 87 3a 14 11 0e bd 9b 84 ea 3c 50 dc e5 3d
       0.0010326102 -0.034684256 0.028627684 0.11223662
000320 fa bc 61 bd a6 1b b0 3d da 3f 0d 3d ff ce b1 3d
       -0.055111863 0.085990235 0.03448472 0.086820595
000330 f0 ca e0 bd f4 24 30 3d 08 e6 ff 3d e2 07 26 3b
       -0.10976207 0.04300399 0.12495047 0.0025334288
000340 62 20 a3 3d 33 ec 67 3d 0d 2c 30 3d 63 f2 c4 bd
       0.07965161 0.05662174 0.04301076 -0.09616544
000350 28 cc 14 bd ec a8 66 3d de 12 d3 3d 60 a1 f7 bc
       -0.03632751 0.05631344 0.10306333 -0.030228317
000360 71 2b a0 3d e9 30 1c bb 2e 03 e2 bd 0c 32 f2 3d
       0.07820786 -0.0023832864 -0.11035763 0.11825952
000370 6f cd cf 3c 9c 24 82 bd 40 6c a0 3c a4 eb f4 3d
       0.025366513 -0.06354639 0.019582868 0.119590074
000380 d8 22 27 3d 1d d2 10 bd 60 8a f2 bc 8a 42 c6 3d
       0.040804714 -0.03535663 -0.029606998 0.0968066
000390 e8 9d b6 3d ae 73 a2 bd 6d b9 98 bd 7c 5e b1 3d
       0.08916837 -0.079322204 -0.07457242 0.086605996
0003a0 dc 56 ba bc 5f 14 a7 bd 34 8c 9a bd 76 fa 3f bd
       -0.022746496 -0.08158182 -0.07546273 -0.046869718
0003b0 40 83 c0 bc 01 b1 08 be 3e e9 e6 bd 78 1a a4 bd
       -0.023500085 -0.13348772 -0.11274956 -0.08012861
0003c0 32 4c c4 bd 6f c7 00 3d 10 9c 5f bc 3c 2f 12 bd
       -0.095848456 0.031440195 -0.013648048 -0.035689577
0003d0 8c 7a 1e bd 62 be 9e bd 4c e5 b1 3d c0 cf 32 3c
       -0.03869109 -0.077511564 0.08686313 0.010913789
0003e0 21 66 82 bc 58 6a 9f bd e8 a3 e2 3c da dd be bd
       -0.01591784 -0.07783955 0.027666047 -0.093196586
0003f0 a7 29 02 be 98 ca 3e bd 7c 44 92 3d 10 8f d3 3d
       -0.12711202 -0.046579927 0.071419686 0.103300214

fc2.bias f4 [128]
000000 eb cf a3 bd dc b4 6d bd c1 76 ad 3c 35 d7 e8 bd
       -0.079986416 -0.05803381 0.02117479 -0.113691725
000010 03 6a 32 3d 85 7a 11 be 61 11 93 bd f1 ba 43 3d
       0.043558132 -0.14206894 -0.07181049 0.047785703
000020 4e a4 18 be ca 32 16 3c fc c6 dc bd 94 71 a3 3c
       -0.14906427 0.0091673825 -0.10780141 0.01995162
000030 d0 4b 9c bc c9 56 2c 3d 36 55 2d be c6 f8 aa bd
       -0.019079119 0.042074952 -0.16927037 -0.08348231
000040 65 a5 44 be 92 c2 99 bd 1f 95 0c bd 10 97 e7 bd
       -0.19203718 -0.075078145 -0.0343219 -0.1130811
000050 ea a3 ff bd 33 8c 51 bd dd 46 d3 3b 1d b8 0b be
       -0.12482436 -0.051159095 0.0064476565 -0.13644452
000060 56 2c 9b bd 6d 42 af bb 37 07 76 bd 14 45 fc bc
       -0.07576816 -0.0053484947 -0.060065474 -0.030794658
000070 66 92 c7 bd d8 68 ee bd b8 67 14 bd b3 a6 5d 3d
       -0.0974472 -0.11641091 -0.036231726 0.054114055
000080 71 9d 12 bc 7d 70 33 bb 53 73 bd 3c 73 29 a9 3d
       -0.00894867 -0.002738028 0.02312628 0.08259859
000090 bc c5 1c 3a ef a4 86 bd 7e 0e 0a 3d 5c 58 1b bc
       0.00059803925 -0.06574427 0.033705227 -0.009481516
0000a0 f4 a0 ef bd 48 c5 37 bd fe 2e a5 bd b2 7b ac bd
       -0.11700621 -0.044865876 -0.08065604 -0.084220305
0000b0 24 9c 8a 3d df 5c 82 bd 6d b2 8f bd 09 29 09 3e
       0.06768063 -0.0636537 -0.07016454 0.1339456
0000c0 93 1c a7 bd 3d 6c 27 3c 98 c3 9a bd 67 c5 c6 3d
       -0.08159747 0.010218677 -0.07556838 0.0970562
0000d0 b9 c2 11 be d0 17 86 be 81 cd e2 3c 9c df cc 38
       -0.14234437 -0.26190042 0.027685883 9.7691285e-05
0000e0 c0 53 99 bd c7 d5 47 3c 44 b9 50 be 95 a6 ce 3c
       -0.07486677 0.012196965 -0.20383173 0.025225917
0000f0 ba b0 fe bd 88 e1 aa bc 7c c7 45 bd e8 13 e4 bb
       -0.12436052 -0.020859495 -0.048285946 -0.006960381
000100 bd 42 16 be c2 53 86 be 4c 21 ef 3c 4a bd 1e bd
       -0.14673896 -0.26235777 0.029190682 -0.03875474
000110 1a c7 e2 bb dc e8 c3 bd 73 59 94 3c c9 65 80 be
       -0.0069207074 -0.09565899 0.018109059 -0.25077656
000120 a8 ec d2 bd 53 c9 8d be ef 3b b8 3d 80 9a 0f bd
       -0.10299045 -0.2769266 0.089958064 -0.035059452
000130 4f c2 cb bd 74 d0 0a bd 7f cb 71 bd 46 00 26 3d
       -0.09949171 -0.033890203 -0.05903196 0.040527605
000140 05 54 b5 bc d1 33 3b bd 66 9d f6 bc 66 9e 64 bd
       -0.02213479 -0.045703713 -0.03010435 -0.055815123
000150 e4 66 b4 bd 8b 23 9d bc 8e ad 3d bd c1 65 8f 3c
       -0.08808687 -0.019181987 -0.046308093 0.017504575
000160 c2 59 f3 bb 50 2b bb bd f0 f5 90 bd a8 cc fd bd
       -0.0074264714 -0.091391206 -0.07078159 -0.12392551
000170 ac 1e 4d bd ea 2c 80 bd 70 16 e1 bd c5 3d 81 bd
       -0.05007808 -0.06258567 -0.10990608 -0.0631061
000180 a5 02 6a be 70 f4 a0 bd 4c f3 51 be ef 7c f5 bd
       -0.22852571 -0.07859123 -0.20502967 -0.1198672
000190 ac 34 68 bb 06 ba ba bd 5e 23 85 3d 12 45 1b 3c
       -0.0035431786 -0.091175124 0.065008864 0.009476917
0001a0 e8 42 cc bd 1f 1c 2b 3c da 9f 10 3d 06 02 b5 bd
       -0.09973699 0.010443716 0.035308696 -0.088382766
0001b0 f1 42 09 be 52 01 80 bc a4 41 1b bd fc 2d 7f bd
       -0.13404442 -0.01562563 -0.037904397 -0.062299713
0001c0 75 95 32 3d ec db c4 bb 0b 1b 32 bd 0e f8 b5 3d
       0.043599565 -0.006007662 -0.04348282 0.08885203
0001d0 04 6b aa bd 26 22 64 bd 4b 5d 79 3c c9 15 6e bd
       -0.08321193 -0.05569663 0.015219997 -0.058126245
0001e0 f9 7f 28 3d e0 4b e3 bc 5d 4d 15 ba 08 34 5d bc
       0.04113767 -0.027746141 -0.0005695427 -0.013501175
0001f0 00 3f 6e 3d 31 fa a9 3c 50 03 ff bc 50 43 51 bd
       0.05816555 0.020749183 -0.03112951 -0.051089585

fc3.weight f4 [128, 128]
000000 c0 9a 0e bd e1 0e ce bc 01 8c 12 bd eb 96 14 bd
       -0.03481555 -0.02515358 -0.03577805 -0.03627674
000010 f9 a7 d5 3c b1 f0 97 bc ac a4 95 3d 22 33 b4 bd
       0.026081072 -0.018547388 0.07306799 -0.08798815
000020 20 e7 d4 bc 95 bf 31 3d 02 be c0 bc 53 fd a1 3d
       -0.025989115 0.043395597 -0.023528103 0.07909646
000030 09 c0 e1 3b e7 2a 5a 3c 4f a3 2d ba c6 cd 4f 3d
       0.0068893475 0.013315893 -0.0006623761 0.05073335
000040 c6 c3 ea 3c 60 69 8e bd 7d 40 81 bd 6a b6 41 3c
       0.028657805 -0.069536924 -0.06311128 0.011823276
000050 4f f0 5c bd c2 5b 74 bd aa c5 28 3d fe 57 8b bd
       -0.053940114 -0.05965782 0.041204132 -0.068038926
000060 d6 69 fe 3c 30 a7 de 3c 6d e8 d5 3c 08 74 63 3c
       0.031056326 0.02717933 0.026111806 0.0138826445
000070 2d 5f 97 3c ed 73 47 3d cb ae 1d bd 2f a9 a7 bd
       0.018478 0.04869454 -0.038496774 -0.08186566
000080 29 44 84 bb 94 df 83 bd 8d a7 bd bd f6 e3 e1 bc
       -0.0040364456 -0.064391285 -0.092604734 -0.02757452
000090 3b 70 af 3d e5 b6 7f 3d aa 68 9d 3d 6a e9 7a 3d
       0.08566328 0.06243028 0.07685979 0.061257757
0000a0 25 cf 73 bd 7e 02 62 3d 62 2e e7 3c 83 70 92 3d
       -0.05952372 0.055178158 0.02822036 0.07150366
0000b0 a2 23 a9 3c a1 e4 d4 3c 6b a0 8a bd 17 c7 13 bd
       0.020646874 0.025987925 -0.067688785 -0.03607854
0000c0 86 8b bd 3b 64 3c 56 3d 63 59 b4 3b 36 27 58 bd
       0.0057844548 0.052303687 0.00550382 -0.05277177
0000d0 94 48 4b bd 75 66 55 3d e6 d1 74 3d 83 a1 3f 3d
       -0.049629763 0.052099664 0.059770487 0.04678489
0000e0 61 e1 9f bc 0f f8 95 bc f2 17 67 3d 87 8a 4d 3d
       -0.019516649 -0.01830676 0.05641932 0.050180938
0000f0 a5 76 de 3c 13 5a 03 bb f5 0f b0 3d b5 8b 09 3c
       0.027156183 -0.0020042702 0.085967936 0.008395125
000100 94 3f cc 3c 18 51 a8 3d 8e e9 88 3d b5 ba 07 bc
       0.02493266 0.082185924 0.06685172 -0.0082842605
000110 7c 35 48 3c 0c 8a 82 bd 04 2f 31 bd f7 34 29 3d
       0.012219783 -0.063739866 -0.04325773 0.041310277
000120 ff 00 66 bc b0 23 81 3a e0 33 a0 3c b3 bf 0e bd
       -0.014038323 0.0009852555 0.019555986 -0.034850787
000130 f6 ad a3 3d c3 f2 4f 3d 3d 1e 7f 3d 52 54 46 bd
       0.07992165 0.050768625 0.062284697 -0.048420258
000140 77 14 ee 3c e0 a3 69 3c dc 3d b5 3c fe 9a a2 3c
       0.029062493 0.014260262 0.022124223 0.019849297
000150 93 65 51 3a f8 96 b3 bb 05 c1 d6 3b 5d 8f 86 bd
       0.0007987853 -0.0054806434 0.0065537714 -0.06570313
000160 cf ba d6 3c f9 d0 b6 bd 6f 7d 5d bd 5d d7 5c bd
       0.026212124 -0.08926577 -0.0540747 -0.053916324
000170 0f 81 bc bd d0 6a 9d 3d 1a c7 9a bd 4e af db b9
       -0.092043035 0.076863885 -0.07557507 -0.00041901547
000180 56 bf 66 3d 6e f2 8a bc ab aa 19 3d b1 e1 8b bb
       0.056334816 -0.016961303 0.037516277 -0.004268848
000190 ec fa a0 3c 3e 35 4a 3d 60 5b 90 bb 3c 08 c7 bd
       0.019650899 0.049367182 -0.004405424 -0.097183675
0001a0 7e b2 c7 3b b1 37 95 bd d4 80 91 3d c2 1f 6d bd
       0.006094276 -0.07286013 0.0710465 -0.057891615
0001b0 8c f8 83 3c 18 75 a6 bd 5e f9 1f 3c 33 77 91 3b
       0.016109727 -0.081278026 0.009764044 0.0044392585
0001c0 1f df f0 3c 1c 50 b4 bd b2 3c 3e bd 55 ad 1b bd
       0.029403267 -0.08804342 -0.046444602 -0.0380071
0001d0 53 68 8f 3d e9 e2 b8 bc 27 af 35 3d 56 87 95 3d
       0.0700232 -0.022569137 0.04435649 0.07301204
0001e0 15 ab a8 3c cb c0 84 3d 3b 54 ec bc f6 ae 0f 3c
       0.02058939 0.06482085 -0.028848758 0.008769741
0001f0 7d cd ad 3d cc a1 13 3d 39 9e 60 3d a8 c0 99 bc
       0.084864594 0.036042973 0.054838393 -0.018768623
000200 0f a2 4f bd 86 86 bc 3d 43 ce 27 3c 0c 02 02 3d
       -0.05069166 0.09205346 0.010242048 0.031740233
000210 c5 e2 8a be 4b 95 65 bf ad 5a 83 bd e8 37 89 3d
       -0.27126136 -0.8968093 -0.064137794 0.067001164
000220 d1 e3 06 bd e8 c2 ff bd c7 ba 89 bd c4 50 bf bd
       -0.032932106 -0.12488347 -0.06725078 -0.09341577
000230 ad f4 0e bd 3f 08 5e bf 71 9a ba be a0 5d 0d bd
       -0.03490131 -0.8673133 -0.36445954 -0.034513116
000240 cd a6 e1 be e7 69 97 bd 49 c8 87 3c e8 0f e0 3c
       -0.4407257 -0.07393246 0.016574996 0.027351335
000250 3e 32 66 bd c6 cb a7 bd c5 ec d7 3e 6f 03 4c be
       -0.05620026 -0.081931636 0.42172828 -0.19923185
000260 ba f7 49 bd e4 06 22 be 5b 2d 19 bd 58 7b c5 39
       -0.049308516 -0.15822941 -0.03739677 0.00037666666
000270 16 6e 22 bd f0 d1 63 bd de 10 01 bd 75 cd bc bd
       -0.039655767 -0.055620134 -0.031510226 -0.09218875
000280 e9 8a 07 bd 11 da 26 3d da e9 94 3e 58 3c e6 bb
       -0.03309146 0.040735308 0.29084665 -0.0070262365
000290 3e 7f db 3c 6b 77 ce bc dd 1e b9 be fc 5b a2 3a
       0.026794072 -0.025203427 -0.3615636 0.0012387033
0002a0 47 24 a1 3d cb 6c 6a 3d dc 5f a5 bd 58 a9 31 be
       0.078682475 0.05723266 -0.08074924 -0.17349756
0002b0 f6 24 38 3e 93 d8 92 3e 73 5e e3 3e ee 1f fc bc
       0.1798285 0.28680858 0.44407997 -0.030776944
0002c0 4b b1 bd 3d 96 f3 2a be 9d 43 2c 3d 21 9a ff bc
       0.092623316 -0.16694483 0.04205667 -0.031201424
0002d0 fe 0c 21 3d fb c5 d9 bd 58 bd a4 bd b2 34 b5 be
       0.03931903 -0.10633465 -0.08043927 -0.35391766
0002e0 58 9b 8d 3d f1 05 25 3f ad df 52 bf 58 24 93 3e
       0.06914395 0.6446219 -0.8237255 0.28738666
0002f0 5d a1 b3 bc f6 72 0b be 0c ca 7a bd 0b 63 33 3d
       -0.02192753 -0.13618073 -0.061227843 0.043795627
000300 e7 4e 53 be 01 c9 76 bf 13 bf 90 3d 4e 06 aa bd
       -0.20635568 -0.9640046 0.070676945 -0.08301984
000310 02 db 5a 3d be 6f ba bd 3e 33 16 3e 85 11 c3 be
       0.05343152 -0.091033444 0.14667985 -0.38099304
000320 a1 48 ad be b1 d2 7f 3e 08 b0 7a 3e 4c 97 14 bc
       -0.33844474 0.24982716 0.24481213 -0.009069275
000330 94 0d ea bc 7d 0a 06 3e 87 ec a4 bd 5a f8 39 3d
       -0.028570928 0.13089938 -0.080529265 0.045402862
000340 ec 6f 19 39 c5 ff d7 3d 61 85 e5 bd 30 15 b3 bc
       0.00014632911 0.10546831 -0.11207081 -0.021860689
000350 23 8e c9 3d 7a 57 01 3c 29 74 94 3d 1f e3 18 3e
       0.098415636 0.007894391 0.07248718 0.1493039
000360 d3 1e 90 3d c5 f5 5b 3e 12 57 63 3e 8d c1 9b bd
       0.07037129 0.21480472 0.22201183 -0.07605276
000370 1d ac cf be 1b 0a bf 3c c8 59 22 3d 17 a2 e1 3d
       -0.40561 0.023320248 0.039636403 0.11017244
000380 d0 35 64 3e 9e 7d f8 bb d0 f2 47 3e 00 d3 7e bd
       0.22286153 -0.007583334 0.1952622 -0.062212944
000390 7c c1 e1 3d 02 a1 44 bd 2f 87 31 be 75 0b 29 be
       0.11023232 -0.04800511 -0.17336725 -0.16508277
0003a0 cb 92 8f bc 58 84 21 3e 0b 3b e9 3d 00 85 c9 3c
       -0.017526051 0.15773141 0.11388215 0.024599552
0003b0 3e 25 8f bc 05 be 29 3d 8c 01 1f bc d1 c0 e6 be
       -0.017473813 0.041440982 -0.009704959 -0.45068982
0003c0 f9 e4 2d be 7f 66 ed 3e 4e 72 a7 bd 7d 27 2e bd
       -0.16981877 0.4636726 -0.08176099 -0.042518128
0003d0 2b 36 66 bb 0d a9 a6 bd 9d 61 aa bd fa 6e 96 bc
       -0.0035127501 -0.08137713 -0.083193995 -0.018363465
0003e0 23 34 a3 3b 4e 60 34 bd 2a e3 80 bd 20 a8 fc 3d
       0.0049805804 -0.044037156 -0.06293328 0.12336755
0003f0 75 5b 11 be b3 a0 49 3d a9 25 79 bd 32 3f be be
       -0.14195044 0.04922552 -0.06082693 -0.3715759

fc3.bias f4 [128]
000000 57 63 94 bd 81 d6 e8 3d d2 56 09 3d ce bc 34 bc
       -0.0724551 0.113690384 0.033530064 -0.011031343
000010 39 7e b4 3c 9b af bf bd 42 d0 20 3e 82 16 81 3d
       0.022032844 -0.09359666 0.15704444 0.06303121
000020 20 37 85 bd 7c 41 02 3e d4 d8 6f bd a5 a8 81 bd
       -0.06504655 0.12720293 -0.058556393 -0.063309945
000030 16 ed c8 bc 78 09 0d 3d 7f 7d 92 bd e0 83 1c bd
       -0.024527114 0.03443286 -0.07152843 -0.038211703
000040 1a 04 ac bd 84 b2 83 bc 48 8b c7 bd 42 af 5c be
       -0.0839922 -0.016076334 -0.09743363 -0.2155123
000050 72 12 62 bd 09 5d 8b bd ca 8a cf bc e4 83 51 bd
       -0.055193372 -0.068048544 -0.025334734 -0.05115117
000060 55 af 9a bd 2b 6f 10 3c 8c ba bd 3d de cc 86 bd
       -0.07552973 0.008815567 0.092640966 -0.06582044
000070 df a0 94 bd fd c5 9f bd 3e b0 86 3c ee f0 01 be
       -0.07257246 -0.07801435 0.01644146 -0.12689564
000080 4e 20 8a 3c 40 59 0e bd dc de 6d be f0 51 d3 3a
       0.016861107 -0.034753084 -0.23229545 0.0016122442
000090 9d 45 8b bd cd e2 87 be 90 52 13 3b 38 40 ea bd
       -0.06800387 -0.26540223 0.002247963 -0.1143803
0000a0 cd 13 0d 3e 83 ed 6a bd 1d 78 fa bd 5a aa a4 3c
       0.13777085 -0.057355415 -0.12229941 0.020100761
0000b0 77 e7 12 bd 0c e8 bd bc f5 78 a3 3d 6a 82 27 3d
       -0.035865273 -0.023181938 0.07982055 0.040895857
0000c0 37 5b 71 bd 5f ea 3f bc b5 8b f2 3d 55 44 9e 3d
       -0.05892488 -0.011713593 0.11843053 0.07727877
0000d0 e5 df 3e bd 81 24 81 bd 65 31 47 bd f2 f6 02 3e
       -0.04660024 -0.06305791 -0.04863109 0.12789515
0000e0 be 50 6d bd 65 66 f2 bd 66 e8 8f 3d a4 61 8f 3d
       -0.05793833 -0.118359365 0.07026748 0.07001045
0000f0 b1 f7 bf bd f0 18 b4 3d 1a 1e d8 3d da c5 8c bd
       -0.09373415 0.08793819 0.105526164 -0.06873675
000100 d6 ee 87 bd 5f d9 a3 bd 65 b6 44 bd c5 41 8d bd
       -0.06637351 -0.080004446 -0.048025507 -0.0689731
000110 ae 3a c7 bd 93 9b bc bc 27 2c 4c bd 35 a9 05 3e
       -0.09727989 -0.023023402 -0.049846794 0.13052829
000120 de 8e f4 bd f1 ad 66 bd 1b e0 a1 bd 16 4c de 3d
       -0.11941312 -0.056318227 -0.07904073 0.10854356
000130 44 18 08 3e cc 4b a0 bd 74 fb 7b bb 0a 80 fe bc
       0.13290507 -0.07826957 -0.0038449438 -0.031066913
000140 2e 94 9a bd a7 15 2f be 62 31 09 bd 5d de 5d 3d
       -0.07547794 -0.17098103 -0.03349436 0.05416714
000150 2c 32 60 3d 04 02 89 bd 15 db 95 3c 9d be 0e bd
       0.054735348 -0.066898376 0.018292943 -0.03484975
000160 02 ce ab bc 70 56 39 bc 52 61 02 3e 9c 3c fd 3c
       -0.020972256 -0.011312112 0.12732437 0.03091269
000170 d0 26 48 bd 24 47 96 bd 27 ca 4d bd cb 4f 53 bd
       -0.04886514 -0.07337788 -0.050241616 -0.05158977
000180 e2 e0 cb 3d 9f 8b 18 bd 96 d5 08 bd ed 65 f0 bc
       0.09955002 -0.037242528 -0.033406816 -0.029345477
000190 4e e2 a7 bd 53 3f c1 3d 9d 16 72 3d 24 b9 d2 3d
       -0.08197461 0.09435906 0.059103597 0.10289219
0001a0 41 52 62 bd 21 b9 02 bc 3b ff d1 3d 99 50 12 3c
       -0.055254225 -0.0079787085 0.102537595 0.008930349
0001b0 b7 bd 7a bd 24 16 c1 3d a8 11 88 bd bf c0 b1 bd
       -0.061216082 0.09428051 -0.06643993 -0.086793415
0001c0 fb 83 0d 3e 9c 5f 61 bd f5 d1 0d 3d 6d cd 95 bd
       0.13819878 -0.05502282 0.03462406 -0.073145725
0001d0 f7 d5 cc 3d 61 39 5f bd 5c 66 2b bd c8 cb 15 3e
       0.10001748 -0.05449808 -0.041845664 0.14628518
0001e0 ad 01 8f bc 5b 23 4a bd 1d e3 3f bd a6 6a 00 3e
       -0.017456854 -0.049350124 -0.04684745 0.12540683
0001f0 8d 08 1b 3e 6f aa e8 bc 82 19 b1 bd c4 c1 90 bd
       0.1513998 -0.028401582 -0.08647443 -0.07068208

fc4.weight f4 [64, 128]
000000 56 41 f6 bc a1 8e 63 3e 42 00 80 3e 75 d6 57 3c
       -0.030060451 0.22222377 0.25000197 0.013173689
000010 d1 31 bb 3e 8d be bf 3d 06 80 0e 3e fd d6 04 bc
       0.36561444 0.093625166 0.13916025 -0.008107898
000020 de 7b 30 3d 33 85 3e be d1 82 1f 3d 78 dd 1f bd
       0.04308688 -0.18605499 0.038943116 -0.03902957
000030 39 49 8a bd 27 6f 52 3e 8f 90 92 bc 95 53 b7 3d
       -0.06752247 0.20550214 -0.017891197 0.08951489
000040 7e ff 51 bd 8f 60 b0 be f5 74 a7 bd 74 64 20 bc
       -0.051269047 -0.34448668 -0.08176605 -0.009789575
000050 59 b0 57 bd 34 30 2b bd 4c b0 3c bd ad 8a 8b 3d
       -0.052658413 -0.041794017 -0.046066567 0.0681356
000060 d8 f7 6f 3b 74 59 84 bd 63 31 b2 3d 3c 72 19 3e
       0.0036616232 -0.06462374 0.08700826 0.14984983
000070 24 54 38 3d 20 7e c7 bc 0c 24 ca bd d5 41 66 3b
       0.045002118 -0.024352133 -0.09870157 0.0035134454
000080 dd 1e 07 3c ba 1d f2 3c 49 d3 a1 be 18 65 9f 3a
       0.0082471045 0.02955519 -0.3160651 0.0012160866
000090 36 40 81 3e ed 21 9b bd b2 6e de be 51 28 39 3d
       0.25244302 -0.0757483 -0.4344383 0.045204464
0000a0 da b0 b8 3d 54 31 09 bc 8b 3b 2a bd ef ae 47 bd
       0.09018107 -0.008373577 -0.04156069 -0.048750814
0000b0 87 06 42 3d 26 4f 28 bd 53 ab 17 bf db 6a c1 be
       0.047369506 -0.041091107 -0.59245795 -0.37776837
0000c0 7e 8c bf bb d4 9f 8a 3d 94 4b 70 bd 48 cb e0 bc
       -0.0058456054 0.06768766 -0.058665827 -0.027440682
0000d0 cc 23 40 3d ee bb b3 bd 4a dd 9f 3d 4a 36 bf 3d
       0.04690914 -0.08776079 0.078058794 0.09336527
0000e0 45 d9 87 3d 36 00 8d bd 94 e5 2f 3e 7a f7 cb be
       0.06633238 -0.06884806 0.17177421 -0.39837247
0000f0 4d 77 a1 bd ba 5b 38 3d b1 af 85 bd da 61 2e bd
       -0.07884083 0.045009352 -0.06527651 -0.042573787
000100 e0 c1 0a 3d 21 c2 ef 3c 30 ea de bc a9 db e5 3e
       0.0338763 0.029267373 -0.027211279 0.4489415
000110 4a c3 89 bc b9 8a 16 3d 64 f1 a5 bb ec 80 27 3e
       -0.016816754 0.03675339 -0.0050641764 0.16357774
000120 be ab 1d 3d 1e 7b 3d bc 2e a6 23 bd 94 79 d7 3d
       0.038493864 -0.011564998 -0.039953403 0.10521236
000130 a0 ba d7 be 38 ad 9d 3d 72 44 7d bc 19 bb f7 bd
       -0.4213457 0.076990545 -0.015458213 -0.12096233
000140 01 97 8f 3d 4a 3a 7b bd e8 72 8c bd 47 43 09 be
       0.070112236 -0.061334886 -0.06857854 -0.1340457
000150 ec d0 d3 3e 3f e7 22 3d 32 7c 2c bf 65 67 09 3d
       0.41370332 0.039771315 -0.67377007 0.03354587
000160 3d 93 33 bd eb 5a 51 bb c7 7c b6 be 34 e3 46 ba
       -0.04384159 -0.003194506 -0.35642073 -0.00075869565
000170 a1 57 3d bd d9 07 7c bd db 60 a4 bc 71 63 4b 3d
       -0.046226148 -0.06153092 -0.020065716 0.04965538
000180 38 c8 ee 3c 66 5c 93 3d 41 2a 87 3d 30 9b 22 3d
       0.029148206 0.07195358 0.06599856 0.03969878
000190 0f 9f 8c bd 57 05 65 3e dd 97 a9 be 91 ec 3b bd
       -0.068662755 0.22365318 -0.33123675 -0.045879904
0001a0 9e ad 00 3d 72 8a 6a be b2 71 f3 3b c6 51 db bd
       0.031415574 -0.22904375 0.007429325 -0.107089564
0001b0 c9 5e 72 3c e3 b9 0a 3e 24 d1 e1 3e d0 b3 bd 3d
       0.014793106 0.13547473 0.44104874 0.09262812
0001c0 a8 46 00 be ef c6 bc 3d e7 c4 01 3f 74 cb d9 bd
       -0.12526953 0.09217631 0.50691074 -0.10634509
0001d0 3f 71 96 3c 76 7c ce 3d b0 0f d7 3d 3b 12 f6 be
       0.018364547 0.10082333 0.10501039 -0.48060784
0001e0 95 92 a5 bc 4f 27 a4 bd 13 e7 00 bd 36 56 92 3e
       -0.020211497 -0.0801531 -0.03147037 0.285814
0001f0 04 38 4a 3e 03 1a 0f bc 11 43 39 b8 6a 3f d1 3d
       0.19747931 -0.008734229 -4.4169898e-05 0.102171734
000200 e5 6e 0b bd b7 bf 2c 3e e8 30 86 3e e3 56 c0 bc
       -0.034041304 0.16870008 0.26209188 -0.02347893
000210 e5 9a 94 3e 5d e1 1d be fe 37 60 3d 49 1f 40 bd
       0.29024425 -0.15418 0.0547409 -0.046904836
000220 12 7b aa 3c d8 1b bc be 8e e0 c8 3d 87 ab 8d 3d
       0.020810638 -0.36739993 0.098084554 0.06917482
000230 80 cd ce bc bf 23 29 3e 17 46 51 bc 43 e0 8c bc
       -0.025244474 0.16517542 -0.012773058 -0.01719678
000240 3e 2c 71 bd 9e 07 9c 3d bf 9d ae 3d 93 18 20 3d
       -0.058880083 0.0761864 0.085261814 0.039085936
000250 e6 7f 48 bd 32 d9 62 3d 80 15 aa bc 61 ee 95 3d
       -0.0489501 0.055382915 -0.020762205 0.07320858
000260 7f 0d a0 bd 44 51 06 bd 50 5e 4e 3b 85 04 65 bc
       -0.07815074 -0.032792345 0.003148932 -0.013978128
000270 9c 5f 4b bd 82 af 65 bd 40 55 93 3d 89 31 90 bd
       -0.049651727 -0.05607558 0.071939945 -0.07040698
000280 87 82 fa 3c 54 62 78 bd 96 ad a6 be d8 3f d1 bc
       0.030579818 -0.060640648 -0.3255431 -0.025543138
000290 af cd a7 3e 7b 64 10 be fd 07 2b be 9f 96 09 bd
       0.32774112 -0.1410083 -0.16702266 -0.03359091
0002a0 30 c9 5a 3e 2f 5e 95 3c bc ef 2b bd 1e 6c f0 3d
       0.2136581 0.018233387 -0.041976675 0.11739372
0002b0 a2 c6 67 bd 09 c4 d2 ba 75 7f 59 be c7 a9 3e be
       -0.056585915 -0.0016080152 -0.21240027 -0.18619452
0002c0 63 5d 54 bd f6 c3 49 bd 24 09 1b bb 11 a6 c8 bd
       -0.051846873 -0.04925915 -0.0023656571 -0.097973
0002d0 2f 04 8e bd fa cf 2d bd 11 4d 06 3d 02 e1 72 bb
       -0.06934392 -0.04243467 0.03278834 -0.0037060385
0002e0 15 14 9b bd 9e 4d e4 3c 64 f7 0e 3e 8a 41 a1 be
       -0.0757219 0.027869042 0.1396156 -0.31495315
0002f0 cf 8b 17 bd 32 4c 69 bd 4e 28 49 bd 7b 1e 97 3c
       -0.036998566 -0.05695743 -0.049110703 0.018447151
000300 c3 65 dd 3d 97 87 99 3d 30 d6 d9 3d e5 4d cb 3e
       0.10810425 0.07496565 0.10636556 0.39707866
000310 6d b4 e2 bd 22 77 0d 3e c9 7d 24 bd 92 2f ad 3d
       -0.1106957 0.13814977 -0.04015902 0.08456339
000320 b9 ac 58 3b 64 7c 1a 3c 4a 82 8b 3c aa 71 e8 3d
       0.0033061935 0.009429071 0.0170299 0.11349805
000330 99 4c b6 be 6b c9 80 3d c4 a6 9c bd bb 04 5d bd
       -0.35605314 0.062884174 -0.076489955 -0.05395959
000340 63 df d7 bc 34 8d 52 3c ae 6b de bd bd 85 74 be
       -0.026351636 0.012851048 -0.10860382 -0.23879142
000350 6c 70 eb 3e 37 d4 a9 3c 86 8d 0a bf ea 11 84 3d
       0.4598421 0.020731075 -0.541222 0.06448729
000360 4f 0c 86 bd 92 c9 38 3d fb e1 06 bf 52 fe a8 bd
       -0.065453164 0.045114107 -0.5268857 -0.08251633
000370 fb 95 95 3d 10 da 9b 3c d4 2c 80 3d 3e 83 e6 bb
       0.07303997 0.019024879 0.0625855 -0.0070346883
000380 95 98 02 bd 9c b0 ab bd 1d 52 0d 3d 8b be bd bd
       -0.031883795 -0.08383295 0.034502137 -0.09264859
000390 3b 6d b4 3b 0a fc 78 3e 93 9a 8d bd a5 3d 74 be
       0.0055061853 0.24314895 -0.06914248 -0.2385164
0003a0 59 e9 31 bd 48 b0 cf bd b2 cf 7a be c4 1c 0d bd
       -0.04343543 -0.10141045 -0.24493292 -0.03445126
0003b0 2c b9 ef bd 21 d9 fd 3d 40 55 fc 3e 82 c1 94 3b
       -0.117052406 0.1239493 0.4928379 0.0045396695
0003c0 20 6c 72 be 32 11 21 3d ae 39 94 3e f3 1d 9b bd
       -0.23674059 0.03932304 0.28950256 -0.07574072
0003d0 3b 02 2f be 16 73 07 3e 8c ab 66 3e 40 36 c0 be
       -0.17090695 0.13227496 0.22526377 -0.3754139
0003e0 e8 bc f9 3d 62 57 10 3d c5 0e 16 bd 34 67 77 3e
       0.12194234 0.035239585 -0.03663518 0.24160463
0003f0 da ff 47 3e 63 f6 01 be 13 dd 23 bd af a4 94 3d
       0.19531193 -0.12691645 -0.040005755 0.072579734

fc4.bias f4 [64]
000000 c1 b9 00 be 79 15 8b bd ad 2c 07 3d b8 25 16 bd
       -0.1257086 -0.06791205 0.03300159 -0.036657065
000010 c5 5c c7 3d 26 39 44 3e 87 ae 53 bd f3 dc a0 3d
       0.09734491 0.19162425 -0.051680114 0.07854643
000020 82 e0 4d 3c a3 6f da 3d 7c e3 b7 bd 4f cc a7 bd
       0.012565734 0.10665824 -0.08978936 -0.08193266
000030 d0 63 95 3d 36 f4 e5 bd f1 d0 92 3c d3 60 17 bd
       0.07294428 -0.1122822 0.017921897 -0.036957573
000040 d3 e1 b5 39 e4 76 a7 be 68 6e da 3d 78 bc b6 3d
       0.00034691262 -0.32707894 0.106655896 0.08922666
000050 d2 f5 cd 3d 2c 02 3b 3e c7 11 0e 3e 34 ad fa 3d
       0.10056652 0.18262547 0.13873969 0.12240067
000060 a1 e8 81 3c 84 49 11 bd 3d df d9 3d 21 ea 4d 3e
       0.015857996 -0.0354705 0.106382824 0.20108844
000070 d9 e0 4a 3e 09 37 da bd 6e 95 59 bd a2 cc b4 3d
       0.19812335 -0.106550284 -0.053121023 0.08828093
000080 29 09 8e 3d 6b 47 23 be 01 4f 50 bd 41 f1 c6 3d
       0.06935341 -0.15945213 -0.050856594 0.09713984
000090 07 d0 f2 3c d9 52 08 bc b5 5b 1b be f0 f8 02 3d
       0.02964021 -0.008320534 -0.15171702 0.031975687
0000a0 6d 27 a1 bd ed 65 2e 3e d0 99 3d 3e cb fb 5a bd
       -0.07868848 0.17031069 0.18515706 -0.053462785
0000b0 0a b0 95 bd 28 25 a4 bd 79 6a b1 3d ac 40 88 be
       -0.073089674 -0.080148995 0.08662886 -0.2661184
0000c0 ba 87 07 3b 2a 37 63 3d 62 2e 1b 3e 69 31 da 3d
       0.0020680265 0.05547253 0.15154412 0.106539555
0000d0 9b f2 de 3d 76 d5 06 be cc 03 5d 3d 16 09 1d 3e
       0.10886117 -0.13167366 0.0539587 0.15335497
0000e0 e0 c2 d5 3c 2d 59 09 be 80 7c 53 bd 59 31 82 bd
       0.0260939 -0.13412924 -0.051632404 -0.063570686
0000f0 a2 6e ff bd 0e 31 8e bc c3 22 9c 3a 38 41 4c bd
       -0.124722734 -0.017357375 0.0011912215 -0.049866885

fc5.weight f4 [32, 64]
000000 a8 cd 04 3d 77 5d 54 3e de d9 27 be 08 fb 91 bd
       0.03242269 0.20738779 -0.16391703 -0.071279585
000010 1c 9b 91 be 17 c9 f8 bd 4c 5e 65 be db 88 e3 be
       -0.28438652 -0.1214773 -0.22399253 -0.4444035
000020 22 9f cc bd c7 4b 88 3d af 4d 59 3e 02 26 d8 bd
       -0.0999129 0.066550784 0.2122104 -0.105541244
000030 c8 13 85 3d a6 98 d7 3d 8e ba 7e 3d 9c 69 1b be
       0.064979136 0.10527162 0.06218963 -0.15177006
000040 75 88 2f 3d 07 ee 8f 3e bf f3 77 bd 21 d5 54 3d
       0.042854745 0.28111288 -0.06053519 0.051961068
000050 c5 b8 8e be 77 63 be be 52 8e fb be 70 48 4a bd
       -0.27875343 -0.3718526 -0.4913202 -0.049385488
000060 63 fa ee 3d 1d 53 e4 bd f7 46 8b 3e a9 f5 be be
       0.11668851 -0.11148665 0.2720258 -0.372968
000070 bc 41 b8 be 8a 5e bb bd f5 a1 e5 3c 4d 6b 85 be
       -0.3598765 -0.09148891 0.028031329 -0.26058426
000080 e5 a9 cf be 9b 48 e4 3d 27 85 3f 3e aa 43 20 3e
       -0.40559307 0.11146661 0.18703137 0.15650812
000090 e6 ea dd 3d 7a 0f bd bd a1 cb a3 bc ff c4 a0 bd
       0.10835819 -0.092314675 -0.019994559 -0.07850074
0000a0 3c a5 f0 3c 5d 4a 9f 3e 2c 9b df be a0 b2 01 3d
       0.029375665 0.31111422 -0.43673074 0.03166449
0000b0 db b2 83 bc da d3 ae bd 11 7c df 3c 5c a0 0f 3f
       -0.016076496 -0.08536501 0.02728084 0.56104064
0000c0 1c 76 6c bd ce 35 29 3d 27 6b 06 bf 83 ca b4 be
       -0.057729825 0.041311078 -0.5250725 -0.35310754
0000d0 d4 ae 23 be db f0 88 bd dd 9c 4e 3f 4e e8 88 be
       -0.1598466 -0.066865645 0.80708104 -0.26739734
0000e0 2c a8 15 38 60 41 c7 3d 08 4b 90 3c 01 54 21 bd
       3.568099e-05 0.09729266 0.017613903 -0.039386753
0000f0 2b 28 b3 3d 80 47 05 bd 43 53 36 bd d7 f3 ae 3e
       0.08747896 -0.03253889 -0.044513 0.3417041
000100 e8 cf e4 be 47 f1 83 be 91 3c b3 be a4 12 ce bd
       -0.4468987 -0.25770018 -0.35007146 -0.10062149
000110 4c 8d 20 be 1c 87 c9 3e 75 3a 29 3e 9e ea 1f 3f
       -0.156789 0.39360893 0.16526206 0.6246737
000120 18 6b d9 3c a8 94 77 3e 7e 1e f9 3d 14 8d 0e 3d
       0.026540324 0.24177802 0.12164019 0.03480251
000130 96 74 91 be 40 f9 e6 3d 19 70 fe 3d 9a 5c 9c 3d
       -0.2840926 0.112780094 0.12423725 0.0763485
000140 3c a0 b3 bd 3b fd 82 be c0 0b cd be 15 33 62 3d
       -0.08770797 -0.25583825 -0.40048027 0.055224497
000150 93 9b fe be 04 85 77 bc 10 6b d3 be 19 bb f6 bb
       -0.4972807 -0.015107397 -0.4129262 -0.007529628
000160 0b 86 b2 be 7c c1 db bd 4a 13 18 be 20 83 df 3c
       -0.34867892 -0.107302636 -0.14851108 0.027284205
000170 d9 cf 57 be c0 b4 28 bc f7 26 96 3d a9 72 61 be
       -0.21075381 -0.010297 0.07331651 -0.22016396
000180 65 60 83 bd fc 25 52 be d8 95 70 be 6f f1 46 be
       -0.0641487 -0.20522302 -0.23494661 -0.19428037
000190 9d c8 d2 bd c0 ac 5c 3d 4f 0b 9b 3d ac d3 0d 3e
       -0.1029217 0.053875685 0.07570516 0.13850278
0001a0 0e 9b 98 3d ad 42 ae be e9 35 1c be 6f b7 f4 bd
       0.07451449 -0.34035245 -0.1525494 -0.1194905
0001b0 26 f5 cf bd a8 60 a0 bd 32 29 65 be 72 01 b5 be
       -0.1015418 -0.07830936 -0.22378996 -0.35352665
0001c0 60 f7 6d bc bf 85 53 3c e7 43 c9 be cb ac f0 bd
       -0.014524311 0.0129103055 -0.39309618 -0.11751708
0001d0 4a 81 66 3b 60 4e b5 ba d0 e2 d7 bd da 50 e2 bd
       0.0035172277 -0.0013832562 -0.10541308 -0.110505775
0001e0 6d fd a0 bd a2 57 dd 3d 18 90 3f 3d 70 d8 c6 bd
       -0.07860837 0.1080773 0.046768278 -0.09709251
0001f0 34 ec ec bd 9d bc aa 3d 20 c2 07 bd 16 7c ab 3e
       -0.1156849 0.083367564 -0.033144116 0.33493108
000200 1e cb 52 be c2 31 e8 bd 84 0d 88 bd e2 00 c1 bd
       -0.20585296 -0.113376155 -0.06643203 -0.094239965
000210 92 2d 65 3c e5 33 af bc cb b8 44 3d d7 88 9c 3d
       0.013987916 -0.02138705 0.048027795 0.07643288
000220 04 92 dd 3d d0 53 bd bc 88 45 58 bd b8 7b e5 bd
       0.10818866 -0.023111254 -0.052800685 -0.11205238
000230 cd a2 38 3d 0e 41 f8 3d 37 64 37 be 4c 51 c5 3c
       0.045077134 0.12121783 -0.17909323 0.024086617
000240 30 ce 80 3d f1 7d 8b 3d bb ff e6 bc d5 e7 2a be
       0.06289327 0.06811131 -0.028198114 -0.1669
000250 74 c4 2d be 27 35 68 be 9e 41 8c 3d 42 87 88 bd
       -0.16969472 -0.22676526 0.06848453 -0.066664234
000260 2d 27 2d 3d 33 16 7a 3d ec b4 e3 bb 44 0d ac bd
       0.04227369 0.061056327 -0.006949058 -0.08400968
000270 0c c5 62 be ae 22 ab 3d 0b 01 17 3d da 40 08 be
       -0.2214548 0.08356224 0.03686623 -0.13305989
000280 40 84 e9 3c 82 02 ad bd 2c c5 a6 3d 9f 6a 1c be
       0.028505445 -0.08447744 0.08143076 -0.15275048
000290 dd 83 a3 bd 6a bc 99 bb 42 75 db 3d 0c e2 49 3e
       -0.07984135 -0.00469165 0.107157245 0.19715136
0002a0 50 aa 51 3d 13 07 25 bd fa 15 00 be f6 48 da 3d
       0.051187813 -0.04028995 -0.12508383 0.106584474
0002b0 40 fa c7 3c 1a 58 81 3d 84 34 ee bb 6a 4a d1 3c
       0.02441132 0.06315632 -0.007269444 0.025548179
0002c0 d4 47 cb bd c4 e6 04 bd 31 cb ab bd c3 a6 6f 3d
       -0.099258095 -0.032446638 -0.08388365 0.058508646
0002d0 70 d1 c9 3a 31 71 9e bd 56 d7 bc 3d 80 97 68 3b
       0.00153975 -0.07736433 0.092207596 0.0035490692
0002e0 a1 e4 c5 bd d8 aa 68 bd e2 dd c7 3d 48 8b 02 bd
       -0.09662748 -0.056803554 0.09759118 -0.03187111
0002f0 c8 20 ae 3d aa 62 f5 bc 04 c0 b0 bd aa ad 47 3e
       0.08502346 -0.029954273 -0.08630374 0.19499841
000300 c3 44 05 bd e8 09 f4 3d 53 72 7a be ae 05 a0 bd
       -0.03253628 0.11915952 -0.24457674 -0.07813583
000310 fa 30 06 3e 36 27 ea 3e f4 b4 81 3e b0 d9 a2 3e
       0.1310462 0.4573304 0.2533337 0.31806707
000320 bf e4 87 3d 84 ed b2 be 9f d3 a5 bd 04 c5 5b 3d
       0.06635427 -0.34946835 -0.08097004 0.053654686
000330 60 c8 9e be 42 5f cd 3d e2 b2 93 be f7 b6 fc 3c
       -0.3101225 0.100279346 -0.28847414 0.030848963
000340 f9 dd 07 bd 10 a8 64 3e bf c1 15 be 02 aa a0 be
       -0.033170674 0.22329736 -0.1462469 -0.31379706
000350 fe 51 c5 be 48 1b 2b 3a 8a a6 88 3d 74 d3 a5 be
       -0.38539118 0.00065271975 0.0667239 -0.32387888
000360 37 87 0c 3e c9 56 67 3d 3c 05 ac be b4 6b bd 3c
       0.13723455 0.05647925 -0.33597744 0.023122646
000370 bf dd 90 3d f3 a4 cf bd 28 9c bf be 34 0c b0 be
       0.07073545 -0.101388834 -0.37423825 -0.3438431
000380 e8 08 5a 3d 95 c1 bc bd 1f 0b 18 be 6e 41 13 3e
       0.05323115 -0.0921661 -0.14847992 0.14380428
000390 9c dc 27 be d5 87 3b 3d b3 b1 47 3e b6 e1 8e 3e
       -0.1639275 0.045783836 0.1950138 0.2790658
0003a0 27 2f bf 3d 12 f6 4b 3e 37 33 1f 3e ad 76 97 3d
       0.093351655 0.19918087 0.1554688 0.073956825
0003b0 26 f8 d2 3d da c9 d6 3d 2d 8c b9 be d6 cd 0b be
       0.10301237 0.10487719 -0.36239758 -0.13652739
0003c0 6c 6e f5 bd ba c6 9f be e8 2d 41 bd 88 d5 90 3d
       -0.11983952 -0.31206304 -0.04716292 0.07071978
0003d0 70 bb eb 3e 0e 4e 98 bd 1d 30 dc 3e c0 0d b6 bd
       0.4604144 -0.07436763 0.43005458 -0.08889341
0003e0 d8 e2 0d be fe 8c 3d 3a e3 a9 bf bd 24 db 6d 3d
       -0.13856065 0.00072307873 -0.09358575 0.058070317
0003f0 53 81 a8 bc 48 ae 78 be 02 fc 04 be 0f 3c c5 3d
       -0.02056948 -0.24285233 -0.12986758 0.09630596

fc5.bias f4 [32]
000000 36 ce a3 bd 36 9c 18 3e 63 56 69 be df 5b 05 3e
       -0.07998316 0.1490334 -0.2278686 0.13023327
000010 13 f3 c5 bd f6 8e da 3d 4b 51 56 3c 56 c8 2c 3e
       -0.09665503 0.10671799 0.013080905 0.16873297
000020 ef 4b 0f 3c cf 7f d7 3d 53 48 36 3e b2 c4 c6 bd
       0.008746131 0.105224244 0.17801027 -0.097054854
000030 a7 e5 7c be c9 4a df bd 9e 9f d8 3d b4 a7 ea bd
       -0.2469698 -0.10902936 0.105773196 -0.11457768
000040 01 d1 03 3e ba 8a 12 bd 84 7d 82 3c 44 8b 5d 3e
       0.12872697 -0.03577683 0.015928991 0.21635157
000050 ee 1a 62 bd fa 03 0a be ab 88 f1 bd c1 7a 34 3e
       -0.055201463 -0.1347808 -0.117936455 0.17624952
000060 5b c2 16 bb 8f 75 19 3e 16 8a 0f 3e 87 ad 17 3e
       -0.0023004028 0.14986251 0.1401752 0.14812289
000070 77 41 25 3d 7c db 10 3e 23 5b 96 be 4a df e4 bd
       0.040345635 0.14146227 -0.29366407 -0.111754015
